…
Epoch 0: 100%|██████████| 395/395 [00:03<00:00, 120.46it/s, loss=0.977, lr=7.62e-5, step=394]/tmp/ipykernel_6709/3220645018.py:102: UserWarning: Using a target size (torch.Size([256, 2])) that is different to the input size (torch.Size([2])). This will likely lead to incorrect results due to broadcasting. Please ensure they have the same size.
  loss = F.mse_loss(noise_pred, noise)
/tmp/ipykernel_6709/3220645018.py:102: UserWarning: Using a target size (torch.Size([232, 2])) that is different to the input size (torch.Size([2])). This will likely lead to incorrect results due to broadcasting. Please ensure they have the same size.
  loss = F.mse_loss(noise_pred, noise)
self.unet=MLP(
  (fc1): Linear(in_features=5, out_features=64, bias=True)
  (fc2): Linear(in_features=64, out_features=64, bias=True)
  (fc3): Linear(in_features=64, out_features=2, bias=True)
) of type <class '__main__.MLP'> cannot be saved.
Epoch 0: 100%|██████████| 395/395 [00:03<00:00, 112.73it/s, loss=0.977, lr=7.62e-5, step=394]
  0%|          | 0/395 [00:00<?, ?it/s]                                                   self.unet=MLP(
  (fc1): Linear(in_features=5, out_features=64, bias=True) loss=1.05, lr=0.0001, step=789]   
  (fc2): Linear(in_features=64, out_features=64, bias=True)
  (fc3): Linear(in_features=64, out_features=2, bias=True)
) of type <class '__main__.MLP'> cannot be saved.
Epoch 1: 100%|██████████| 395/395 [00:03<00:00, 102.19it/s, loss=1.05, lr=0.0001, step=789]
Epoch 2: 100%|██████████| 395/395 [00:02<00:00, 140.79it/s, loss=1.09, lr=0.0001, step=1184]self.unet=MLP(
  (fc1): Linear(in_features=5, out_features=64, bias=True)
  (fc2): Linear(in_features=64, out_features=64, bias=True)
  (fc3): Linear(in_features=64, out_features=2, bias=True)
) of type <class '__main__.MLP'> cannot be saved.
Epoch 2: 100%|██████████| 395/395 [00:02<00:00, 134.63it/s, loss=1.09, lr=0.0001, step=1184]
  0%|          | 0/395 [00:00<?, ?it/s]                                                    self.unet=MLP(
  (fc1): Linear(in_features=5, out_features=64, bias=True), loss=3.2, lr=0.0001, step=1579]  
  (fc2): Linear(in_features=64, out_features=64, bias=True)
  (fc3): Linear(in_features=64, out_features=2, bias=True)
) of type <class '__main__.MLP'> cannot be saved.
Epoch 3: 100%|██████████| 395/395 [00:03<00:00, 111.48it/s, loss=3.2, lr=0.0001, step=1579]
Epoch 4: 100%|██████████| 395/395 [00:02<00:00, 134.44it/s, loss=1.11, lr=0.0001, step=1974]self.unet=MLP(
  (fc1): Linear(in_features=5, out_features=64, bias=True)
  (fc2): Linear(in_features=64, out_features=64, bias=True)
  (fc3): Linear(in_features=64, out_features=2, bias=True)
) of type <class '__main__.MLP'> cannot be saved.
Epoch 4: 100%|██████████| 395/395 [00:02<00:00, 134.63it/s, loss=1.11, lr=0.0001, step=1974]
  0%|          | 0/395 [00:00<?, ?it/s]                                                      self.unet=MLP(
  (fc1): Linear(in_features=5, out_features=64, bias=True), loss=0.87, lr=0.0001, step=2369] 
  (fc2): Linear(in_features=64, out_features=64, bias=True)
  (fc3): Linear(in_features=64, out_features=2, bias=True)
) of type <class '__main__.MLP'> cannot be saved.
Epoch 5: 100%|██████████| 395/395 [00:03<00:00, 108.78it/s, loss=0.87, lr=0.0001, step=2369]
Epoch 6: 100%|██████████| 395/395 [00:03<00:00, 136.30it/s, loss=0.819, lr=0.0001, step=2764]self.unet=MLP(
  (fc1): Linear(in_features=5, out_features=64, bias=True)
  (fc2): Linear(in_features=64, out_features=64, bias=True)
  (fc3): Linear(in_features=64, out_features=2, bias=True)
) of type <class '__main__.MLP'> cannot be saved.
Epoch 6: 100%|██████████| 395/395 [00:03<00:00, 128.08it/s, loss=0.819, lr=0.0001, step=2764]
  0%|          | 0/395 [00:00<?, ?it/s]                                                     self.unet=MLP(
  (fc1): Linear(in_features=5, out_features=64, bias=True), loss=1.13, lr=0.0001, step=3159] 
  (fc2): Linear(in_features=64, out_features=64, bias=True)
  (fc3): Linear(in_features=64, out_features=2, bias=True)
) of type <class '__main__.MLP'> cannot be saved.
Epoch 7: 100%|██████████| 395/395 [00:03<00:00, 113.58it/s, loss=1.13, lr=0.0001, step=3159]
Epoch 8: 100%|██████████| 395/395 [00:02<00:00, 146.01it/s, loss=1.09, lr=9.99e-5, step=3554]self.unet=MLP(
  (fc1): Linear(in_features=5, out_features=64, bias=True)
  (fc2): Linear(in_features=64, out_features=64, bias=True)
  (fc3): Linear(in_features=64, out_features=2, bias=True)
) of type <class '__main__.MLP'> cannot be saved.
Epoch 8: 100%|██████████| 395/395 [00:02<00:00, 131.94it/s, loss=1.09, lr=9.99e-5, step=3554]
  0%|          | 0/395 [00:00<?, ?it/s]                                                      self.unet=MLP(
  (fc1): Linear(in_features=5, out_features=64, bias=True), loss=1.03, lr=9.99e-5, step=3949] 
  (fc2): Linear(in_features=64, out_features=64, bias=True)
  (fc3): Linear(in_features=64, out_features=2, bias=True)
) of type <class '__main__.MLP'> cannot be saved.
Epoch 9: 100%|██████████| 395/395 [00:03<00:00, 115.41it/s, loss=1.03, lr=9.99e-5, step=3949]
Epoch 10: 100%|██████████| 395/395 [00:02<00:00, 140.31it/s, loss=1.04, lr=9.99e-5, step=4344]self.unet=MLP(
  (fc1): Linear(in_features=5, out_features=64, bias=True)
  (fc2): Linear(in_features=64, out_features=64, bias=True)
  (fc3): Linear(in_features=64, out_features=2, bias=True)
) of type <class '__main__.MLP'> cannot be saved.
Epoch 10: 100%|██████████| 395/395 [00:02<00:00, 135.91it/s, loss=1.04, lr=9.99e-5, step=4344]
  0%|          | 0/395 [00:00<?, ?it/s]                                                        self.unet=MLP(
  (fc1): Linear(in_features=5, out_features=64, bias=True)s, loss=0.901, lr=9.99e-5, step=4739]
  (fc2): Linear(in_features=64, out_features=64, bias=True)
  (fc3): Linear(in_features=64, out_features=2, bias=True)
) of type <class '__main__.MLP'> cannot be saved.
Epoch 11: 100%|██████████| 395/395 [00:03<00:00, 110.60it/s, loss=0.901, lr=9.99e-5, step=4739]
Epoch 12: 100%|██████████| 395/395 [00:02<00:00, 146.69it/s, loss=1.03, lr=9.99e-5, step=5134] self.unet=MLP(
  (fc1): Linear(in_features=5, out_features=64, bias=True)
  (fc2): Linear(in_features=64, out_features=64, bias=True)
  (fc3): Linear(in_features=64, out_features=2, bias=True)
) of type <class '__main__.MLP'> cannot be saved.
Epoch 12: 100%|██████████| 395/395 [00:02<00:00, 140.51it/s, loss=1.03, lr=9.99e-5, step=5134]
  0%|          | 0/395 [00:00<?, ?it/s]                                                       self.unet=MLP(
  (fc1): Linear(in_features=5, out_features=64, bias=True)s, loss=1.05, lr=9.98e-5, step=5529] 
  (fc2): Linear(in_features=64, out_features=64, bias=True)
  (fc3): Linear(in_features=64, out_features=2, bias=True)
) of type <class '__main__.MLP'> cannot be saved.
Epoch 13: 100%|██████████| 395/395 [00:03<00:00, 115.48it/s, loss=1.05, lr=9.98e-5, step=5529]
Epoch 14: 100%|██████████| 395/395 [00:02<00:00, 146.04it/s, loss=1.13, lr=9.98e-5, step=5924] self.unet=MLP(
  (fc1): Linear(in_features=5, out_features=64, bias=True)
  (fc2): Linear(in_features=64, out_features=64, bias=True)
  (fc3): Linear(in_features=64, out_features=2, bias=True)
) of type <class '__main__.MLP'> cannot be saved.
Epoch 14: 100%|██████████| 395/395 [00:02<00:00, 142.00it/s, loss=1.13, lr=9.98e-5, step=5924]
  0%|          | 0/395 [00:00<?, ?it/s]                                                       self.unet=MLP(
  (fc1): Linear(in_features=5, out_features=64, bias=True)s, loss=1.55, lr=9.98e-5, step=6319] 
  (fc2): Linear(in_features=64, out_features=64, bias=True)
  (fc3): Linear(in_features=64, out_features=2, bias=True)
) of type <class '__main__.MLP'> cannot be saved.
Epoch 15: 100%|██████████| 395/395 [00:03<00:00, 115.67it/s, loss=1.55, lr=9.98e-5, step=6319]
Epoch 16: 100%|██████████| 395/395 [00:03<00:00, 132.22it/s, loss=0.93, lr=9.98e-5, step=6714] self.unet=MLP(
  (fc1): Linear(in_features=5, out_features=64, bias=True)
  (fc2): Linear(in_features=64, out_features=64, bias=True)
  (fc3): Linear(in_features=64, out_features=2, bias=True)
) of type <class '__main__.MLP'> cannot be saved.
Epoch 16: 100%|██████████| 395/395 [00:03<00:00, 125.06it/s, loss=0.93, lr=9.98e-5, step=6714]
  0%|          | 0/395 [00:00<?, ?it/s]                                                        self.unet=MLP(
  (fc1): Linear(in_features=5, out_features=64, bias=True)s, loss=0.961, lr=9.97e-5, step=7109]
  (fc2): Linear(in_features=64, out_features=64, bias=True)
  (fc3): Linear(in_features=64, out_features=2, bias=True)
) of type <class '__main__.MLP'> cannot be saved.
Epoch 17: 100%|██████████| 395/395 [00:03<00:00, 117.06it/s, loss=0.961, lr=9.97e-5, step=7109]
Epoch 18: 100%|██████████| 395/395 [00:03<00:00, 128.98it/s, loss=1.09, lr=9.97e-5, step=7504]self.unet=MLP(
  (fc1): Linear(in_features=5, out_features=64, bias=True)
  (fc2): Linear(in_features=64, out_features=64, bias=True)
  (fc3): Linear(in_features=64, out_features=2, bias=True)
) of type <class '__main__.MLP'> cannot be saved.
Epoch 18: 100%|██████████| 395/395 [00:03<00:00, 130.46it/s, loss=1.09, lr=9.97e-5, step=7504]
  0%|          | 0/395 [00:00<?, ?it/s]                                                       self.unet=MLP(
  (fc1): Linear(in_features=5, out_features=64, bias=True)s, loss=1.11, lr=9.97e-5, step=7899] 
  (fc2): Linear(in_features=64, out_features=64, bias=True)
  (fc3): Linear(in_features=64, out_features=2, bias=True)
) of type <class '__main__.MLP'> cannot be saved.
Epoch 19: 100%|██████████| 395/395 [00:03<00:00, 110.09it/s, loss=1.11, lr=9.97e-5, step=7899]
Epoch 20: 100%|██████████| 395/395 [00:02<00:00, 140.01it/s, loss=1.1, lr=9.96e-5, step=8294]  self.unet=MLP(
  (fc1): Linear(in_features=5, out_features=64, bias=True)
  (fc2): Linear(in_features=64, out_features=64, bias=True)
  (fc3): Linear(in_features=64, out_features=2, bias=True)
) of type <class '__main__.MLP'> cannot be saved.
Epoch 20: 100%|██████████| 395/395 [00:02<00:00, 136.06it/s, loss=1.1, lr=9.96e-5, step=8294]
  0%|          | 0/395 [00:00<?, ?it/s]                                                        self.unet=MLP(
  (fc1): Linear(in_features=5, out_features=64, bias=True)s, loss=1.03, lr=9.96e-5, step=8689] 
  (fc2): Linear(in_features=64, out_features=64, bias=True)
  (fc3): Linear(in_features=64, out_features=2, bias=True)
) of type <class '__main__.MLP'> cannot be saved.
Epoch 21: 100%|██████████| 395/395 [00:03<00:00, 110.78it/s, loss=1.03, lr=9.96e-5, step=8689]
Epoch 22: 100%|██████████| 395/395 [00:02<00:00, 143.87it/s, loss=1.04, lr=9.95e-5, step=9084] self.unet=MLP(
  (fc1): Linear(in_features=5, out_features=64, bias=True)
  (fc2): Linear(in_features=64, out_features=64, bias=True)
  (fc3): Linear(in_features=64, out_features=2, bias=True)
) of type <class '__main__.MLP'> cannot be saved.
Epoch 22: 100%|██████████| 395/395 [00:02<00:00, 141.67it/s, loss=1.04, lr=9.95e-5, step=9084]
  0%|          | 0/395 [00:00<?, ?it/s]                                                        self.unet=MLP(
  (fc1): Linear(in_features=5, out_features=64, bias=True)s, loss=1.08, lr=9.95e-5, step=9479] 
  (fc2): Linear(in_features=64, out_features=64, bias=True)
  (fc3): Linear(in_features=64, out_features=2, bias=True)
) of type <class '__main__.MLP'> cannot be saved.
Epoch 23: 100%|██████████| 395/395 [00:03<00:00, 116.65it/s, loss=1.08, lr=9.95e-5, step=9479]
Epoch 24: 100%|██████████| 395/395 [00:03<00:00, 135.02it/s, loss=1.07, lr=9.94e-5, step=9874] self.unet=MLP(
  (fc1): Linear(in_features=5, out_features=64, bias=True)
  (fc2): Linear(in_features=64, out_features=64, bias=True)
  (fc3): Linear(in_features=64, out_features=2, bias=True)
) of type <class '__main__.MLP'> cannot be saved.
Epoch 24: 100%|██████████| 395/395 [00:03<00:00, 128.92it/s, loss=1.07, lr=9.94e-5, step=9874]
  0%|          | 0/395 [00:00<?, ?it/s]                                                        self.unet=MLP(
  (fc1): Linear(in_features=5, out_features=64, bias=True)s, loss=1, lr=9.94e-5, step=10269]    
  (fc2): Linear(in_features=64, out_features=64, bias=True)
  (fc3): Linear(in_features=64, out_features=2, bias=True)
) of type <class '__main__.MLP'> cannot be saved.
Epoch 25: 100%|██████████| 395/395 [00:03<00:00, 112.70it/s, loss=1, lr=9.94e-5, step=10269]
Epoch 26: 100%|██████████| 395/395 [00:03<00:00, 90.78it/s, loss=1.18, lr=9.93e-5, step=10664]self.unet=MLP(
  (fc1): Linear(in_features=5, out_features=64, bias=True)
  (fc2): Linear(in_features=64, out_features=64, bias=True)
  (fc3): Linear(in_features=64, out_features=2, bias=True)
) of type <class '__main__.MLP'> cannot be saved.
Epoch 26: 100%|██████████| 395/395 [00:03<00:00, 124.14it/s, loss=1.18, lr=9.93e-5, step=10664]
  0%|          | 0/395 [00:00<?, ?it/s]                                                         self.unet=MLP(
  (fc1): Linear(in_features=5, out_features=64, bias=True)s, loss=0.927, lr=9.93e-5, step=11059]
  (fc2): Linear(in_features=64, out_features=64, bias=True)
  (fc3): Linear(in_features=64, out_features=2, bias=True)
) of type <class '__main__.MLP'> cannot be saved.
Epoch 27: 100%|██████████| 395/395 [00:03<00:00, 112.26it/s, loss=0.927, lr=9.93e-5, step=11059]
Epoch 28: 100%|██████████| 395/395 [00:03<00:00, 130.02it/s, loss=1.05, lr=9.92e-5, step=11454]self.unet=MLP(
  (fc1): Linear(in_features=5, out_features=64, bias=True)
  (fc2): Linear(in_features=64, out_features=64, bias=True)
  (fc3): Linear(in_features=64, out_features=2, bias=True)
) of type <class '__main__.MLP'> cannot be saved.
Epoch 28: 100%|██████████| 395/395 [00:03<00:00, 123.19it/s, loss=1.05, lr=9.92e-5, step=11454]
  0%|          | 0/395 [00:00<?, ?it/s]                                                        self.unet=MLP(
  (fc1): Linear(in_features=5, out_features=64, bias=True)s, loss=1.08, lr=9.92e-5, step=11849] 
  (fc2): Linear(in_features=64, out_features=64, bias=True)
  (fc3): Linear(in_features=64, out_features=2, bias=True)
) of type <class '__main__.MLP'> cannot be saved.
Epoch 29: 100%|██████████| 395/395 [00:03<00:00, 106.04it/s, loss=1.08, lr=9.92e-5, step=11849]
Epoch 30: 100%|██████████| 395/395 [00:03<00:00, 135.17it/s, loss=1.06, lr=9.91e-5, step=12244]self.unet=MLP(
  (fc1): Linear(in_features=5, out_features=64, bias=True)
  (fc2): Linear(in_features=64, out_features=64, bias=True)
  (fc3): Linear(in_features=64, out_features=2, bias=True)
) of type <class '__main__.MLP'> cannot be saved.
Epoch 30: 100%|██████████| 395/395 [00:03<00:00, 129.03it/s, loss=1.06, lr=9.91e-5, step=12244]
  0%|          | 0/395 [00:00<?, ?it/s]                                                        self.unet=MLP(
  (fc1): Linear(in_features=5, out_features=64, bias=True)s, loss=1.42, lr=9.91e-5, step=12639] 
  (fc2): Linear(in_features=64, out_features=64, bias=True)
  (fc3): Linear(in_features=64, out_features=2, bias=True)
) of type <class '__main__.MLP'> cannot be saved.
Epoch 31: 100%|██████████| 395/395 [00:03<00:00, 113.45it/s, loss=1.42, lr=9.91e-5, step=12639]
Epoch 32: 100%|██████████| 395/395 [00:03<00:00, 134.62it/s, loss=1.17, lr=9.9e-5, step=13034]self.unet=MLP(
  (fc1): Linear(in_features=5, out_features=64, bias=True)
  (fc2): Linear(in_features=64, out_features=64, bias=True)
  (fc3): Linear(in_features=64, out_features=2, bias=True)
) of type <class '__main__.MLP'> cannot be saved.
Epoch 32: 100%|██████████| 395/395 [00:03<00:00, 127.15it/s, loss=1.17, lr=9.9e-5, step=13034]
  0%|          | 0/395 [00:00<?, ?it/s]                                                         self.unet=MLP(
  (fc1): Linear(in_features=5, out_features=64, bias=True)s, loss=1.23, lr=9.89e-5, step=13429] 
  (fc2): Linear(in_features=64, out_features=64, bias=True)
  (fc3): Linear(in_features=64, out_features=2, bias=True)
) of type <class '__main__.MLP'> cannot be saved.
Epoch 33: 100%|██████████| 395/395 [00:03<00:00, 115.32it/s, loss=1.23, lr=9.89e-5, step=13429]
Epoch 34: 100%|██████████| 395/395 [00:03<00:00, 111.21it/s, loss=1, lr=9.89e-5, step=13824]  self.unet=MLP(
  (fc1): Linear(in_features=5, out_features=64, bias=True)
  (fc2): Linear(in_features=64, out_features=64, bias=True)
  (fc3): Linear(in_features=64, out_features=2, bias=True)
) of type <class '__main__.MLP'> cannot be saved.
Epoch 34: 100%|██████████| 395/395 [00:03<00:00, 126.56it/s, loss=1, lr=9.89e-5, step=13824]
  0%|          | 0/395 [00:00<?, ?it/s]                                                         self.unet=MLP(
  (fc1): Linear(in_features=5, out_features=64, bias=True)s, loss=1.05, lr=9.88e-5, step=14219] 
  (fc2): Linear(in_features=64, out_features=64, bias=True)
  (fc3): Linear(in_features=64, out_features=2, bias=True)
) of type <class '__main__.MLP'> cannot be saved.
Epoch 35: 100%|██████████| 395/395 [00:03<00:00, 111.44it/s, loss=1.05, lr=9.88e-5, step=14219]
Epoch 36: 100%|██████████| 395/395 [00:02<00:00, 136.13it/s, loss=1.05, lr=9.87e-5, step=14614]self.unet=MLP(
  (fc1): Linear(in_features=5, out_features=64, bias=True)
  (fc2): Linear(in_features=64, out_features=64, bias=True)
  (fc3): Linear(in_features=64, out_features=2, bias=True)
) of type <class '__main__.MLP'> cannot be saved.
Epoch 36: 100%|██████████| 395/395 [00:02<00:00, 135.02it/s, loss=1.05, lr=9.87e-5, step=14614]
  0%|          | 0/395 [00:00<?, ?it/s]                                                        self.unet=MLP(
  (fc1): Linear(in_features=5, out_features=64, bias=True)s, loss=1.09, lr=9.87e-5, step=15009] 
  (fc2): Linear(in_features=64, out_features=64, bias=True)
  (fc3): Linear(in_features=64, out_features=2, bias=True)
) of type <class '__main__.MLP'> cannot be saved.
Epoch 37: 100%|██████████| 395/395 [00:03<00:00, 109.66it/s, loss=1.09, lr=9.87e-5, step=15009]
Epoch 38: 100%|██████████| 395/395 [00:03<00:00, 130.95it/s, loss=1.05, lr=9.86e-5, step=15404]self.unet=MLP(
  (fc1): Linear(in_features=5, out_features=64, bias=True)
  (fc2): Linear(in_features=64, out_features=64, bias=True)
  (fc3): Linear(in_features=64, out_features=2, bias=True)
) of type <class '__main__.MLP'> cannot be saved.
Epoch 38: 100%|██████████| 395/395 [00:03<00:00, 129.42it/s, loss=1.05, lr=9.86e-5, step=15404]
  0%|          | 0/395 [00:00<?, ?it/s]                                                         self.unet=MLP(
  (fc1): Linear(in_features=5, out_features=64, bias=True)s, loss=0.878, lr=9.85e-5, step=15799]
  (fc2): Linear(in_features=64, out_features=64, bias=True)
  (fc3): Linear(in_features=64, out_features=2, bias=True)
) of type <class '__main__.MLP'> cannot be saved.
Epoch 39: 100%|██████████| 395/395 [00:03<00:00, 111.90it/s, loss=0.878, lr=9.85e-5, step=15799]
Epoch 40: 100%|██████████| 395/395 [00:03<00:00, 134.04it/s, loss=0.91, lr=9.84e-5, step=16194]self.unet=MLP(
  (fc1): Linear(in_features=5, out_features=64, bias=True)
  (fc2): Linear(in_features=64, out_features=64, bias=True)
  (fc3): Linear(in_features=64, out_features=2, bias=True)
) of type <class '__main__.MLP'> cannot be saved.
Epoch 40: 100%|██████████| 395/395 [00:03<00:00, 125.91it/s, loss=0.91, lr=9.84e-5, step=16194]
  0%|          | 0/395 [00:00<?, ?it/s]                                                         self.unet=MLP(
  (fc1): Linear(in_features=5, out_features=64, bias=True)s, loss=0.941, lr=9.84e-5, step=16589]
  (fc2): Linear(in_features=64, out_features=64, bias=True)
  (fc3): Linear(in_features=64, out_features=2, bias=True)
) of type <class '__main__.MLP'> cannot be saved.
Epoch 41: 100%|██████████| 395/395 [00:03<00:00, 112.81it/s, loss=0.941, lr=9.84e-5, step=16589]
Epoch 42: 100%|██████████| 395/395 [00:03<00:00, 120.54it/s, loss=1, lr=9.83e-5, step=16984]    self.unet=MLP(
  (fc1): Linear(in_features=5, out_features=64, bias=True)
  (fc2): Linear(in_features=64, out_features=64, bias=True)
  (fc3): Linear(in_features=64, out_features=2, bias=True)
) of type <class '__main__.MLP'> cannot be saved.
Epoch 42: 100%|██████████| 395/395 [00:03<00:00, 121.91it/s, loss=1, lr=9.83e-5, step=16984]
  0%|          | 0/395 [00:00<?, ?it/s]                                                        self.unet=MLP(
  (fc1): Linear(in_features=5, out_features=64, bias=True)s, loss=1.17, lr=9.82e-5, step=17379] 
  (fc2): Linear(in_features=64, out_features=64, bias=True)
  (fc3): Linear(in_features=64, out_features=2, bias=True)
) of type <class '__main__.MLP'> cannot be saved.
Epoch 43: 100%|██████████| 395/395 [00:03<00:00, 114.66it/s, loss=1.17, lr=9.82e-5, step=17379]
Epoch 44: 100%|██████████| 395/395 [00:03<00:00, 127.89it/s, loss=1.08, lr=9.81e-5, step=17774] self.unet=MLP(
  (fc1): Linear(in_features=5, out_features=64, bias=True)
  (fc2): Linear(in_features=64, out_features=64, bias=True)
  (fc3): Linear(in_features=64, out_features=2, bias=True)
) of type <class '__main__.MLP'> cannot be saved.
Epoch 44: 100%|██████████| 395/395 [00:03<00:00, 129.76it/s, loss=1.08, lr=9.81e-5, step=17774]
  0%|          | 0/395 [00:00<?, ?it/s]                                                        self.unet=MLP(
  (fc1): Linear(in_features=5, out_features=64, bias=True)s, loss=0.999, lr=9.8e-5, step=18169] 
  (fc2): Linear(in_features=64, out_features=64, bias=True)
  (fc3): Linear(in_features=64, out_features=2, bias=True)
) of type <class '__main__.MLP'> cannot be saved.
Epoch 45: 100%|██████████| 395/395 [00:03<00:00, 109.14it/s, loss=0.999, lr=9.8e-5, step=18169]
Epoch 46: 100%|██████████| 395/395 [00:02<00:00, 134.00it/s, loss=0.862, lr=9.79e-5, step=18564]self.unet=MLP(
  (fc1): Linear(in_features=5, out_features=64, bias=True)
  (fc2): Linear(in_features=64, out_features=64, bias=True)
  (fc3): Linear(in_features=64, out_features=2, bias=True)
) of type <class '__main__.MLP'> cannot be saved.
Epoch 46: 100%|██████████| 395/395 [00:03<00:00, 131.00it/s, loss=0.862, lr=9.79e-5, step=18564]
  0%|          | 0/395 [00:00<?, ?it/s]                                                        self.unet=MLP(
  (fc1): Linear(in_features=5, out_features=64, bias=True)s, loss=1, lr=9.79e-5, step=18959]    
  (fc2): Linear(in_features=64, out_features=64, bias=True)
  (fc3): Linear(in_features=64, out_features=2, bias=True)
) of type <class '__main__.MLP'> cannot be saved.
Epoch 47: 100%|██████████| 395/395 [00:03<00:00, 108.55it/s, loss=1, lr=9.79e-5, step=18959]
Epoch 48: 100%|██████████| 395/395 [00:03<00:00, 139.31it/s, loss=1.12, lr=9.78e-5, step=19354] self.unet=MLP(
  (fc1): Linear(in_features=5, out_features=64, bias=True)
  (fc2): Linear(in_features=64, out_features=64, bias=True)
  (fc3): Linear(in_features=64, out_features=2, bias=True)
) of type <class '__main__.MLP'> cannot be saved.
Epoch 48: 100%|██████████| 395/395 [00:03<00:00, 128.00it/s, loss=1.12, lr=9.78e-5, step=19354]
  0%|          | 0/395 [00:00<?, ?it/s]                                                        self.unet=MLP(
  (fc1): Linear(in_features=5, out_features=64, bias=True)s, loss=1.04, lr=9.77e-5, step=19749] 
  (fc2): Linear(in_features=64, out_features=64, bias=True)
  (fc3): Linear(in_features=64, out_features=2, bias=True)
) of type <class '__main__.MLP'> cannot be saved.
Epoch 49: 100%|██████████| 395/395 [00:03<00:00, 116.07it/s, loss=1.04, lr=9.77e-5, step=19749]
Epoch 50: 100%|██████████| 395/395 [00:03<00:00, 129.90it/s, loss=1.28, lr=9.76e-5, step=20144]self.unet=MLP(
  (fc1): Linear(in_features=5, out_features=64, bias=True)
  (fc2): Linear(in_features=64, out_features=64, bias=True)
  (fc3): Linear(in_features=64, out_features=2, bias=True)
) of type <class '__main__.MLP'> cannot be saved.
Epoch 50: 100%|██████████| 395/395 [00:03<00:00, 125.68it/s, loss=1.28, lr=9.76e-5, step=20144]
  0%|          | 0/395 [00:00<?, ?it/s]                                                         self.unet=MLP(
  (fc1): Linear(in_features=5, out_features=64, bias=True)s, loss=0.936, lr=9.75e-5, step=20539]
  (fc2): Linear(in_features=64, out_features=64, bias=True)
  (fc3): Linear(in_features=64, out_features=2, bias=True)
) of type <class '__main__.MLP'> cannot be saved.
Epoch 51: 100%|██████████| 395/395 [00:03<00:00, 109.66it/s, loss=0.936, lr=9.75e-5, step=20539]
Epoch 52: 100%|██████████| 395/395 [00:03<00:00, 117.14it/s, loss=0.932, lr=9.74e-5, step=20934]self.unet=MLP(
  (fc1): Linear(in_features=5, out_features=64, bias=True)
  (fc2): Linear(in_features=64, out_features=64, bias=True)
  (fc3): Linear(in_features=64, out_features=2, bias=True)
) of type <class '__main__.MLP'> cannot be saved.
Epoch 52: 100%|██████████| 395/395 [00:03<00:00, 123.64it/s, loss=0.932, lr=9.74e-5, step=20934]
  0%|          | 0/395 [00:00<?, ?it/s]                                                         self.unet=MLP(
  (fc1): Linear(in_features=5, out_features=64, bias=True)s, loss=0.942, lr=9.73e-5, step=21329]
  (fc2): Linear(in_features=64, out_features=64, bias=True)
  (fc3): Linear(in_features=64, out_features=2, bias=True)
) of type <class '__main__.MLP'> cannot be saved.
Epoch 53: 100%|██████████| 395/395 [00:03<00:00, 102.08it/s, loss=0.942, lr=9.73e-5, step=21329]
Epoch 54: 100%|██████████| 395/395 [00:03<00:00, 127.83it/s, loss=1.1, lr=9.72e-5, step=21724]  
Early stopping at epoch 54
ClassConditionedUnet(
  (model): UNet2DModel(
    (conv_in): Conv2d(3, 32, kernel_size=(3, 3), stride=(1, 1), padding=(1, 1))
    (time_proj): Timesteps()
    (time_embedding): TimestepEmbedding(
      (linear_1): Linear(in_features=32, out_features=128, bias=True)
      (act): SiLU()
      (linear_2): Linear(in_features=128, out_features=128, bias=True)
    )
    (down_blocks): ModuleList(
      (0): DownBlock2D(
        (resnets): ModuleList(
          (0-1): 2 x ResnetBlock2D(
            (norm1): GroupNorm(32, 32, eps=1e-05, affine=True)
            (conv1): Conv2d(32, 32, kernel_size=(3, 3), stride=(1, 1), padding=(1, 1))
            (time_emb_proj): Linear(in_features=128, out_features=32, bias=True)
            (norm2): GroupNorm(32, 32, eps=1e-05, affine=True)
            (dropout): Dropout(p=0.0, inplace=False)
            (conv2): Conv2d(32, 32, kernel_size=(3, 3), stride=(1, 1), padding=(1, 1))
            (nonlinearity): SiLU()
          )
        )
        (downsamplers): ModuleList(
          (0): Downsample2D(
            (conv): Conv2d(32, 32, kernel_size=(3, 3), stride=(2, 2), padding=(1, 1))
          )
        )
      )
      (1): AttnDownBlock2D(
        (attentions): ModuleList(
          (0-1): 2 x Attention(
            (group_norm): GroupNorm(32, 64, eps=1e-05, affine=True)
            (to_q): Linear(in_features=64, out_features=64, bias=True)
            (to_k): Linear(in_features=64, out_features=64, bias=True)
            (to_v): Linear(in_features=64, out_features=64, bias=True)
            (to_out): ModuleList(
              (0): Linear(in_features=64, out_features=64, bias=True)
              (1): Dropout(p=0.0, inplace=False)
            )
          )
        )
        (resnets): ModuleList(
          (0): ResnetBlock2D(
            (norm1): GroupNorm(32, 32, eps=1e-05, affine=True)
            (conv1): Conv2d(32, 64, kernel_size=(3, 3), stride=(1, 1), padding=(1, 1))
            (time_emb_proj): Linear(in_features=128, out_features=64, bias=True)
            (norm2): GroupNorm(32, 64, eps=1e-05, affine=True)
            (dropout): Dropout(p=0.0, inplace=False)
            (conv2): Conv2d(64, 64, kernel_size=(3, 3), stride=(1, 1), padding=(1, 1))
            (nonlinearity): SiLU()
            (conv_shortcut): Conv2d(32, 64, kernel_size=(1, 1), stride=(1, 1))
          )
          (1): ResnetBlock2D(
            (norm1): GroupNorm(32, 64, eps=1e-05, affine=True)
            (conv1): Conv2d(64, 64, kernel_size=(3, 3), stride=(1, 1), padding=(1, 1))
            (time_emb_proj): Linear(in_features=128, out_features=64, bias=True)
            (norm2): GroupNorm(32, 64, eps=1e-05, affine=True)
            (dropout): Dropout(p=0.0, inplace=False)
            (conv2): Conv2d(64, 64, kernel_size=(3, 3), stride=(1, 1), padding=(1, 1))
            (nonlinearity): SiLU()
          )
        )
      )
    )
    (up_blocks): ModuleList(
      (0): AttnUpBlock2D(
        (attentions): ModuleList(
          (0-2): 3 x Attention(
            (group_norm): GroupNorm(32, 64, eps=1e-05, affine=True)
            (to_q): Linear(in_features=64, out_features=64, bias=True)
            (to_k): Linear(in_features=64, out_features=64, bias=True)
            (to_v): Linear(in_features=64, out_features=64, bias=True)
            (to_out): ModuleList(
              (0): Linear(in_features=64, out_features=64, bias=True)
              (1): Dropout(p=0.0, inplace=False)
            )
          )
        )
        (resnets): ModuleList(
          (0-1): 2 x ResnetBlock2D(
            (norm1): GroupNorm(32, 128, eps=1e-05, affine=True)
            (conv1): Conv2d(128, 64, kernel_size=(3, 3), stride=(1, 1), padding=(1, 1))
            (time_emb_proj): Linear(in_features=128, out_features=64, bias=True)
            (norm2): GroupNorm(32, 64, eps=1e-05, affine=True)
            (dropout): Dropout(p=0.0, inplace=False)
            (conv2): Conv2d(64, 64, kernel_size=(3, 3), stride=(1, 1), padding=(1, 1))
            (nonlinearity): SiLU()
            (conv_shortcut): Conv2d(128, 64, kernel_size=(1, 1), stride=(1, 1))
          )
          (2): ResnetBlock2D(
            (norm1): GroupNorm(32, 96, eps=1e-05, affine=True)
            (conv1): Conv2d(96, 64, kernel_size=(3, 3), stride=(1, 1), padding=(1, 1))
            (time_emb_proj): Linear(in_features=128, out_features=64, bias=True)
            (norm2): GroupNorm(32, 64, eps=1e-05, affine=True)
            (dropout): Dropout(p=0.0, inplace=False)
            (conv2): Conv2d(64, 64, kernel_size=(3, 3), stride=(1, 1), padding=(1, 1))
            (nonlinearity): SiLU()
            (conv_shortcut): Conv2d(96, 64, kernel_size=(1, 1), stride=(1, 1))
          )
        )
        (upsamplers): ModuleList(
          (0): Upsample2D(
            (conv): Conv2d(64, 64, kernel_size=(3, 3), stride=(1, 1), padding=(1, 1))
          )
        )
      )
      (1): UpBlock2D(
        (resnets): ModuleList(
          (0): ResnetBlock2D(
            (norm1): GroupNorm(32, 96, eps=1e-05, affine=True)
            (conv1): Conv2d(96, 32, kernel_size=(3, 3), stride=(1, 1), padding=(1, 1))
            (time_emb_proj): Linear(in_features=128, out_features=32, bias=True)
            (norm2): GroupNorm(32, 32, eps=1e-05, affine=True)
            (dropout): Dropout(p=0.0, inplace=False)
            (conv2): Conv2d(32, 32, kernel_size=(3, 3), stride=(1, 1), padding=(1, 1))
            (nonlinearity): SiLU()
            (conv_shortcut): Conv2d(96, 32, kernel_size=(1, 1), stride=(1, 1))
          )
          (1-2): 2 x ResnetBlock2D(
            (norm1): GroupNorm(32, 64, eps=1e-05, affine=True)
            (conv1): Conv2d(64, 32, kernel_size=(3, 3), stride=(1, 1), padding=(1, 1))
            (time_emb_proj): Linear(in_features=128, out_features=32, bias=True)
            (norm2): GroupNorm(32, 32, eps=1e-05, affine=True)
            (dropout): Dropout(p=0.0, inplace=False)
            (conv2): Conv2d(32, 32, kernel_size=(3, 3), stride=(1, 1), padding=(1, 1))
            (nonlinearity): SiLU()
            (conv_shortcut): Conv2d(64, 32, kernel_size=(1, 1), stride=(1, 1))
          )
        )
      )
    )
    (mid_block): UNetMidBlock2D(
      (attentions): ModuleList(
        (0): Attention(
          (group_norm): GroupNorm(32, 64, eps=1e-05, affine=True)
          (to_q): Linear(in_features=64, out_features=64, bias=True)
          (to_k): Linear(in_features=64, out_features=64, bias=True)
          (to_v): Linear(in_features=64, out_features=64, bias=True)
          (to_out): ModuleList(
            (0): Linear(in_features=64, out_features=64, bias=True)
            (1): Dropout(p=0.0, inplace=False)
          )
        )
      )
      (resnets): ModuleList(
        (0-1): 2 x ResnetBlock2D(
          (norm1): GroupNorm(32, 64, eps=1e-05, affine=True)
          (conv1): Conv2d(64, 64, kernel_size=(3, 3), stride=(1, 1), padding=(1, 1))
          (time_emb_proj): Linear(in_features=128, out_features=64, bias=True)
          (norm2): GroupNorm(32, 64, eps=1e-05, affine=True)
          (dropout): Dropout(p=0.0, inplace=False)
          (conv2): Conv2d(64, 64, kernel_size=(3, 3), stride=(1, 1), padding=(1, 1))
          (nonlinearity): SiLU()
        )
      )
    )
    (conv_norm_out): GroupNorm(32, 32, eps=1e-05, affine=True)
    (conv_act): SiLU()
    (conv_out): Conv2d(32, 1, kernel_size=(3, 3), stride=(1, 1), padding=(1, 1))
  )
)
ClassConditionedUnet(
  (model): UNet2DModel(
    (conv_in): Conv2d(3, 32, kernel_size=(3, 3), stride=(1, 1), padding=(1, 1))
    (time_proj): Timesteps()
    (time_embedding): TimestepEmbedding(
      (linear_1): Linear(in_features=32, out_features=128, bias=True)
      (act): SiLU()
      (linear_2): Linear(in_features=128, out_features=128, bias=True)
    )
    (down_blocks): ModuleList(
      (0): DownBlock2D(
        (resnets): ModuleList(
          (0-1): 2 x ResnetBlock2D(
            (norm1): GroupNorm(32, 32, eps=1e-05, affine=True)
            (conv1): Conv2d(32, 32, kernel_size=(3, 3), stride=(1, 1), padding=(1, 1))
            (time_emb_proj): Linear(in_features=128, out_features=32, bias=True)
            (norm2): GroupNorm(32, 32, eps=1e-05, affine=True)
            (dropout): Dropout(p=0.0, inplace=False)
            (conv2): Conv2d(32, 32, kernel_size=(3, 3), stride=(1, 1), padding=(1, 1))
            (nonlinearity): SiLU()
          )
        )
        (downsamplers): ModuleList(
          (0): Downsample2D(
            (conv): Conv2d(32, 32, kernel_size=(3, 3), stride=(2, 2), padding=(1, 1))
          )
        )
      )
      (1): AttnDownBlock2D(
        (attentions): ModuleList(
          (0-1): 2 x Attention(
            (group_norm): GroupNorm(32, 64, eps=1e-05, affine=True)
            (to_q): Linear(in_features=64, out_features=64, bias=True)
            (to_k): Linear(in_features=64, out_features=64, bias=True)
            (to_v): Linear(in_features=64, out_features=64, bias=True)
            (to_out): ModuleList(
              (0): Linear(in_features=64, out_features=64, bias=True)
              (1): Dropout(p=0.0, inplace=False)
            )
          )
        )
        (resnets): ModuleList(
          (0): ResnetBlock2D(
            (norm1): GroupNorm(32, 32, eps=1e-05, affine=True)
            (conv1): Conv2d(32, 64, kernel_size=(3, 3), stride=(1, 1), padding=(1, 1))
            (time_emb_proj): Linear(in_features=128, out_features=64, bias=True)
            (norm2): GroupNorm(32, 64, eps=1e-05, affine=True)
            (dropout): Dropout(p=0.0, inplace=False)
            (conv2): Conv2d(64, 64, kernel_size=(3, 3), stride=(1, 1), padding=(1, 1))
            (nonlinearity): SiLU()
            (conv_shortcut): Conv2d(32, 64, kernel_size=(1, 1), stride=(1, 1))
          )
          (1): ResnetBlock2D(
            (norm1): GroupNorm(32, 64, eps=1e-05, affine=True)
            (conv1): Conv2d(64, 64, kernel_size=(3, 3), stride=(1, 1), padding=(1, 1))
            (time_emb_proj): Linear(in_features=128, out_features=64, bias=True)
            (norm2): GroupNorm(32, 64, eps=1e-05, affine=True)
            (dropout): Dropout(p=0.0, inplace=False)
            (conv2): Conv2d(64, 64, kernel_size=(3, 3), stride=(1, 1), padding=(1, 1))
            (nonlinearity): SiLU()
          )
        )
      )
    )
    (up_blocks): ModuleList(
      (0): AttnUpBlock2D(
        (attentions): ModuleList(
          (0-2): 3 x Attention(
            (group_norm): GroupNorm(32, 64, eps=1e-05, affine=True)
            (to_q): Linear(in_features=64, out_features=64, bias=True)
            (to_k): Linear(in_features=64, out_features=64, bias=True)
            (to_v): Linear(in_features=64, out_features=64, bias=True)
            (to_out): ModuleList(
              (0): Linear(in_features=64, out_features=64, bias=True)
              (1): Dropout(p=0.0, inplace=False)
            )
          )
        )
        (resnets): ModuleList(
          (0-1): 2 x ResnetBlock2D(
            (norm1): GroupNorm(32, 128, eps=1e-05, affine=True)
            (conv1): Conv2d(128, 64, kernel_size=(3, 3), stride=(1, 1), padding=(1, 1))
            (time_emb_proj): Linear(in_features=128, out_features=64, bias=True)
            (norm2): GroupNorm(32, 64, eps=1e-05, affine=True)
            (dropout): Dropout(p=0.0, inplace=False)
            (conv2): Conv2d(64, 64, kernel_size=(3, 3), stride=(1, 1), padding=(1, 1))
            (nonlinearity): SiLU()
            (conv_shortcut): Conv2d(128, 64, kernel_size=(1, 1), stride=(1, 1))
          )
          (2): ResnetBlock2D(
            (norm1): GroupNorm(32, 96, eps=1e-05, affine=True)
            (conv1): Conv2d(96, 64, kernel_size=(3, 3), stride=(1, 1), padding=(1, 1))
            (time_emb_proj): Linear(in_features=128, out_features=64, bias=True)
            (norm2): GroupNorm(32, 64, eps=1e-05, affine=True)
            (dropout): Dropout(p=0.0, inplace=False)
            (conv2): Conv2d(64, 64, kernel_size=(3, 3), stride=(1, 1), padding=(1, 1))
            (nonlinearity): SiLU()
            (conv_shortcut): Conv2d(96, 64, kernel_size=(1, 1), stride=(1, 1))
          )
        )
        (upsamplers): ModuleList(
          (0): Upsample2D(
            (conv): Conv2d(64, 64, kernel_size=(3, 3), stride=(1, 1), padding=(1, 1))
          )
        )
      )
      (1): UpBlock2D(
        (resnets): ModuleList(
          (0): ResnetBlock2D(
            (norm1): GroupNorm(32, 96, eps=1e-05, affine=True)
            (conv1): Conv2d(96, 32, kernel_size=(3, 3), stride=(1, 1), padding=(1, 1))
            (time_emb_proj): Linear(in_features=128, out_features=32, bias=True)
            (norm2): GroupNorm(32, 32, eps=1e-05, affine=True)
            (dropout): Dropout(p=0.0, inplace=False)
            (conv2): Conv2d(32, 32, kernel_size=(3, 3), stride=(1, 1), padding=(1, 1))
            (nonlinearity): SiLU()
            (conv_shortcut): Conv2d(96, 32, kernel_size=(1, 1), stride=(1, 1))
          )
          (1-2): 2 x ResnetBlock2D(
            (norm1): GroupNorm(32, 64, eps=1e-05, affine=True)
            (conv1): Conv2d(64, 32, kernel_size=(3, 3), stride=(1, 1), padding=(1, 1))
            (time_emb_proj): Linear(in_features=128, out_features=32, bias=True)
            (norm2): GroupNorm(32, 32, eps=1e-05, affine=True)
            (dropout): Dropout(p=0.0, inplace=False)
            (conv2): Conv2d(32, 32, kernel_size=(3, 3), stride=(1, 1), padding=(1, 1))
            (nonlinearity): SiLU()
            (conv_shortcut): Conv2d(64, 32, kernel_size=(1, 1), stride=(1, 1))
          )
        )
      )
    )
    (mid_block): UNetMidBlock2D(
      (attentions): ModuleList(
        (0): Attention(
          (group_norm): GroupNorm(32, 64, eps=1e-05, affine=True)
          (to_q): Linear(in_features=64, out_features=64, bias=True)
          (to_k): Linear(in_features=64, out_features=64, bias=True)
          (to_v): Linear(in_features=64, out_features=64, bias=True)
          (to_out): ModuleList(
            (0): Linear(in_features=64, out_features=64, bias=True)
            (1): Dropout(p=0.0, inplace=False)
          )
        )
      )
      (resnets): ModuleList(
        (0-1): 2 x ResnetBlock2D(
          (norm1): GroupNorm(32, 64, eps=1e-05, affine=True)
          (conv1): Conv2d(64, 64, kernel_size=(3, 3), stride=(1, 1), padding=(1, 1))
          (time_emb_proj): Linear(in_features=128, out_features=64, bias=True)
          (norm2): GroupNorm(32, 64, eps=1e-05, affine=True)
          (dropout): Dropout(p=0.0, inplace=False)
          (conv2): Conv2d(64, 64, kernel_size=(3, 3), stride=(1, 1), padding=(1, 1))
          (nonlinearity): SiLU()
        )
      )
    )
    (conv_norm_out): GroupNorm(32, 32, eps=1e-05, affine=True)
    (conv_act): SiLU()
    (conv_out): Conv2d(32, 1, kernel_size=(3, 3), stride=(1, 1), padding=(1, 1))
  )
)
Input shape: torch.Size([5])
Noisy image shape: torch.Size([2])
Noisy image: tensor([-1.4531,  1.4520])
ClassConditionedUnet(
  (model): UNet2DModel(
    (conv_in): Conv2d(3, 32, kernel_size=(3, 3), stride=(1, 1), padding=(1, 1))
    (time_proj): Timesteps()
    (time_embedding): TimestepEmbedding(
      (linear_1): Linear(in_features=32, out_features=128, bias=True)
      (act): SiLU()
      (linear_2): Linear(in_features=128, out_features=128, bias=True)
    )
    (down_blocks): ModuleList(
      (0): DownBlock2D(
        (resnets): ModuleList(
          (0-1): 2 x ResnetBlock2D(
            (norm1): GroupNorm(32, 32, eps=1e-05, affine=True)
            (conv1): Conv2d(32, 32, kernel_size=(3, 3), stride=(1, 1), padding=(1, 1))
            (time_emb_proj): Linear(in_features=128, out_features=32, bias=True)
            (norm2): GroupNorm(32, 32, eps=1e-05, affine=True)
            (dropout): Dropout(p=0.0, inplace=False)
            (conv2): Conv2d(32, 32, kernel_size=(3, 3), stride=(1, 1), padding=(1, 1))
            (nonlinearity): SiLU()
          )
        )
        (downsamplers): ModuleList(
          (0): Downsample2D(
            (conv): Conv2d(32, 32, kernel_size=(3, 3), stride=(2, 2), padding=(1, 1))
          )
        )
      )
      (1): AttnDownBlock2D(
        (attentions): ModuleList(
          (0-1): 2 x Attention(
            (group_norm): GroupNorm(32, 64, eps=1e-05, affine=True)
            (to_q): Linear(in_features=64, out_features=64, bias=True)
            (to_k): Linear(in_features=64, out_features=64, bias=True)
            (to_v): Linear(in_features=64, out_features=64, bias=True)
            (to_out): ModuleList(
              (0): Linear(in_features=64, out_features=64, bias=True)
              (1): Dropout(p=0.0, inplace=False)
            )
          )
        )
        (resnets): ModuleList(
          (0): ResnetBlock2D(
            (norm1): GroupNorm(32, 32, eps=1e-05, affine=True)
            (conv1): Conv2d(32, 64, kernel_size=(3, 3), stride=(1, 1), padding=(1, 1))
            (time_emb_proj): Linear(in_features=128, out_features=64, bias=True)
            (norm2): GroupNorm(32, 64, eps=1e-05, affine=True)
            (dropout): Dropout(p=0.0, inplace=False)
            (conv2): Conv2d(64, 64, kernel_size=(3, 3), stride=(1, 1), padding=(1, 1))
            (nonlinearity): SiLU()
            (conv_shortcut): Conv2d(32, 64, kernel_size=(1, 1), stride=(1, 1))
          )
          (1): ResnetBlock2D(
            (norm1): GroupNorm(32, 64, eps=1e-05, affine=True)
            (conv1): Conv2d(64, 64, kernel_size=(3, 3), stride=(1, 1), padding=(1, 1))
            (time_emb_proj): Linear(in_features=128, out_features=64, bias=True)
            (norm2): GroupNorm(32, 64, eps=1e-05, affine=True)
            (dropout): Dropout(p=0.0, inplace=False)
            (conv2): Conv2d(64, 64, kernel_size=(3, 3), stride=(1, 1), padding=(1, 1))
            (nonlinearity): SiLU()
          )
        )
      )
    )
    (up_blocks): ModuleList(
      (0): AttnUpBlock2D(
        (attentions): ModuleList(
          (0-2): 3 x Attention(
            (group_norm): GroupNorm(32, 64, eps=1e-05, affine=True)
            (to_q): Linear(in_features=64, out_features=64, bias=True)
            (to_k): Linear(in_features=64, out_features=64, bias=True)
            (to_v): Linear(in_features=64, out_features=64, bias=True)
            (to_out): ModuleList(
              (0): Linear(in_features=64, out_features=64, bias=True)
              (1): Dropout(p=0.0, inplace=False)
            )
          )
        )
        (resnets): ModuleList(
          (0-1): 2 x ResnetBlock2D(
            (norm1): GroupNorm(32, 128, eps=1e-05, affine=True)
            (conv1): Conv2d(128, 64, kernel_size=(3, 3), stride=(1, 1), padding=(1, 1))
            (time_emb_proj): Linear(in_features=128, out_features=64, bias=True)
            (norm2): GroupNorm(32, 64, eps=1e-05, affine=True)
            (dropout): Dropout(p=0.0, inplace=False)
            (conv2): Conv2d(64, 64, kernel_size=(3, 3), stride=(1, 1), padding=(1, 1))
            (nonlinearity): SiLU()
            (conv_shortcut): Conv2d(128, 64, kernel_size=(1, 1), stride=(1, 1))
          )
          (2): ResnetBlock2D(
            (norm1): GroupNorm(32, 96, eps=1e-05, affine=True)
            (conv1): Conv2d(96, 64, kernel_size=(3, 3), stride=(1, 1), padding=(1, 1))
            (time_emb_proj): Linear(in_features=128, out_features=64, bias=True)
            (norm2): GroupNorm(32, 64, eps=1e-05, affine=True)
            (dropout): Dropout(p=0.0, inplace=False)
            (conv2): Conv2d(64, 64, kernel_size=(3, 3), stride=(1, 1), padding=(1, 1))
            (nonlinearity): SiLU()
            (conv_shortcut): Conv2d(96, 64, kernel_size=(1, 1), stride=(1, 1))
          )
        )
        (upsamplers): ModuleList(
          (0): Upsample2D(
            (conv): Conv2d(64, 64, kernel_size=(3, 3), stride=(1, 1), padding=(1, 1))
          )
        )
      )
      (1): UpBlock2D(
        (resnets): ModuleList(
          (0): ResnetBlock2D(
            (norm1): GroupNorm(32, 96, eps=1e-05, affine=True)
            (conv1): Conv2d(96, 32, kernel_size=(3, 3), stride=(1, 1), padding=(1, 1))
            (time_emb_proj): Linear(in_features=128, out_features=32, bias=True)
            (norm2): GroupNorm(32, 32, eps=1e-05, affine=True)
            (dropout): Dropout(p=0.0, inplace=False)
            (conv2): Conv2d(32, 32, kernel_size=(3, 3), stride=(1, 1), padding=(1, 1))
            (nonlinearity): SiLU()
            (conv_shortcut): Conv2d(96, 32, kernel_size=(1, 1), stride=(1, 1))
          )
          (1-2): 2 x ResnetBlock2D(
            (norm1): GroupNorm(32, 64, eps=1e-05, affine=True)
            (conv1): Conv2d(64, 32, kernel_size=(3, 3), stride=(1, 1), padding=(1, 1))
            (time_emb_proj): Linear(in_features=128, out_features=32, bias=True)
            (norm2): GroupNorm(32, 32, eps=1e-05, affine=True)
            (dropout): Dropout(p=0.0, inplace=False)
            (conv2): Conv2d(32, 32, kernel_size=(3, 3), stride=(1, 1), padding=(1, 1))
            (nonlinearity): SiLU()
            (conv_shortcut): Conv2d(64, 32, kernel_size=(1, 1), stride=(1, 1))
          )
        )
      )
    )
    (mid_block): UNetMidBlock2D(
      (attentions): ModuleList(
        (0): Attention(
          (group_norm): GroupNorm(32, 64, eps=1e-05, affine=True)
          (to_q): Linear(in_features=64, out_features=64, bias=True)
          (to_k): Linear(in_features=64, out_features=64, bias=True)
          (to_v): Linear(in_features=64, out_features=64, bias=True)
          (to_out): ModuleList(
            (0): Linear(in_features=64, out_features=64, bias=True)
            (1): Dropout(p=0.0, inplace=False)
          )
        )
      )
      (resnets): ModuleList(
        (0-1): 2 x ResnetBlock2D(
          (norm1): GroupNorm(32, 64, eps=1e-05, affine=True)
          (conv1): Conv2d(64, 64, kernel_size=(3, 3), stride=(1, 1), padding=(1, 1))
          (time_emb_proj): Linear(in_features=128, out_features=64, bias=True)
          (norm2): GroupNorm(32, 64, eps=1e-05, affine=True)
          (dropout): Dropout(p=0.0, inplace=False)
          (conv2): Conv2d(64, 64, kernel_size=(3, 3), stride=(1, 1), padding=(1, 1))
          (nonlinearity): SiLU()
        )
      )
    )
    (conv_norm_out): GroupNorm(32, 32, eps=1e-05, affine=True)
    (conv_act): SiLU()
    (conv_out): Conv2d(32, 1, kernel_size=(3, 3), stride=(1, 1), padding=(1, 1))
  )
)
